MNIST/checkpoint/model_epoch1.pth (torch, 268573 bytes, 24 tensors)

conv1.weight f4 [10, 1, 5, 5]
0	0x3e16dcf5	0.14732726
1	0x3dfc126d	0.12308202
2	0xbe2b3b7a	-0.16721907
3	0xbdbb2ca6	-0.091393754
4	0xbe6b3b73	-0.22971897
5	0xbd7806a3	-0.060553204
6	0x3c93de1c	0.018050246
7	0xbd13cda9	-0.036084805
8	0xbdd198d0	-0.10234225
9	0xbe434781	-0.19070245
10	0x3dc4ca56	0.09608905
11	0xbd835291	-0.06412233
12	0xbe4f5423	-0.2024694
13	0xbe2f6d82	-0.17131618
14	0xbd7cd596	-0.06172713
15	0xbdd39359	-0.10330839
16	0xbe639298	-0.2222389
17	0xbd0d0b22	-0.034434445
18	0xbddaa431	-0.10675848
19	0xbde6afcd	-0.11264
20	0xbd97a772	-0.074049845
21	0x3b878449	0.0041356427
22	0x3dde127a	0.10843368
23	0xbe56e0d8	-0.20984209
24	0xbc9b3013	-0.018943822
25	0x3cf35d59	0.029707598
26	0x3db19064	0.086701185
27	0x3e9721dd	0.29518023
28	0x3dcaf96f	0.09910857
29	0xbc618aa0	-0.013765961
30	0x3e055b0d	0.13023014
31	0x3e0caeb5	0.1373852
32	0x3e85b5f1	0.26115373
33	0x3ec9e7a5	0.39434543
34	0xbc2ca167	-0.010536528
35	0x3dae990f	0.08525287
36	0x3cf49c94	0.029859819
37	0x3da2629b	0.07928964
38	0x3eaea651	0.34111264
39	0x3e83985f	0.25702187
40	0xbeb14ac3	-0.3462735
41	0xbeaa1bbd	-0.33224288
42	0xbea364d3	-0.3191286
43	0x3dd1aadd	0.10237668
44	0x3e9c7f22	0.30565745
45	0xbe2f1f75	-0.17101844
46	0xbe43f70f	-0.19137214
47	0xbe93c8cc	-0.28864133
48	0xbdcfffee	-0.101562366
49	0x3d6f2299	0.058382604
50	0xbe5164f6	-0.2044867
51	0xbe351396	-0.17683253
52	0xbe9e32d4	-0.30898154
53	0xbdda6b51	-0.10665
54	0xbca75b57	-0.020429296
55	0xbde4c962	-0.11171223
56	0x3c9a616d	0.018845284
57	0xbe30f827	-0.17282163
58	0x3de64e00	0.11245346
59	0xbd6a0356	-0.057132088
60	0x3dddafb6	0.1082453
61	0xbc61bb91	-0.0137776295
62	0x3eaa5847	0.33270475
63	0x3eb56aef	0.35433146
64	0x3e388cc1	0.18022443
65	0x3e901efc	0.2814864
66	0x3ea10168	0.31446385
67	0x3e35ee32	0.17766646
68	0x3e45bf41	0.19311239
69	0x3e672651	0.2257321
70	0xbdfff5e5	-0.124980725
71	0x3d8bc233	0.0682415
72	0xbe5f4e10	-0.21807122
73	0xbeb842b9	-0.35988405
74	0xbe9eea45	-0.31038108
75	0x3e0c3ad4	0.13694316
76	0xbbaf6cae	-0.005353532
77	0x3e834ea4	0.25645936
78	0xbdb0e469	-0.08637316
79	0x3e1efea7	0.1552683
80	0x3dae50d8	0.085115135
81	0x3eaa95e4	0.33317482
82	0x3e81cd47	0.25351927
83	0x3dd4ac55	0.10384432
84	0x3e372258	0.17884195
85	0x3e53e731	0.20693661
86	0x3e267800	0.16256714
87	0x3c07fcbd	0.008300004
88	0xbd39c158	-0.045350403
89	0x3e0a4b31	0.13505246
90	0x3e7a5351	0.24445845
91	0x3eaf35e2	0.34220797
92	0x3e88fdb4	0.2675606
93	0x3e500b4a	0.20316806
94	0xbdcf7847	-0.10130363
95	0x3e8e3f49	0.27782658
96	0x3e8246fb	0.2544478
97	0x3df73f79	0.12072653
98	0xbd6b68d0	-0.057473004
99	0xbe8c4b57	-0.2740123
100	0x3c1f176c	0.009710174
101	0xbe62aa6a	-0.2213532
102	0x3d5d9bbd	0.0541036
103	0xbea4fe7d	-0.3222541
104	0xbe3e7215	-0.18598206
105	0xbe5af882	-0.2138386
106	0xbe6ff31e	-0.23432586
107	0xbd3c723e	-0.046007387
108	0xbdd31054	-0.10305849
109	0xbe549a0f	-0.20761894
110	0xbdbcb452	-0.09214081
111	0xbd12cab0	-0.03583783
112	0x3da3d4ce	0.07999574
113	0x3d288885	0.04114582
114	0x3de52a9f	0.1118977
115	0x3e1919e7	0.14951287
116	0xbd8a5af8	-0.06755632
117	0x3a8e5f7e	0.0010862199
118	0x3e06767a	0.13131133
119	0x3e75ae0f	0.2399218
120	0x3e7272f5	0.23676665
121	0x3e8c8f9c	0.27453315
122	0x3ec351f3	0.3814846
123	0x3e82f14d	0.25574723
124	0x3d9dde9a	0.077084735
125	0x3db82407	0.08991247
126	0x3e6b6866	0.22989044
127	0xbe1481b1	-0.14502598
128	0xbe3b79dc	-0.18308204
129	0xbe49a615	-0.19692262
130	0xbe2f2339	-0.1710328
131	0x3e955f31	0.29174188
132	0x3e47715e	0.1947684
133	0xbea245e6	-0.31693953
134	0xbe409a34	-0.18808824
135	0x3e40a74c	0.18813819
136	0x3e6ca3d2	0.23109367
137	0x3e7506b2	0.23928335
138	0xbea4e9a8	-0.32209516
139	0xbe8a2995	-0.2698485
140	0xbcb50c0e	-0.022100475
141	0x3e585638	0.2112664
142	0x3e951a57	0.29121658
143	0x3e1cb7a7	0.15304433
144	0x3d738eba	0.059462287
145	0x3d26e26e	0.040743284
146	0xbd900820	-0.070328
147	0x3e8f2c57	0.27963516
148	0xbda2ef52	-0.07955803
149	0xbe26d38e	-0.16291639
150	0x3db56ca2	0.08858611
151	0x3e6af7a4	0.2294603
152	0x3d07653c	0.03305553
153	0x3e3ba3e5	0.1832424
154	0x3e89eee4	0.26940072
155	0xbe057c92	-0.13035801
156	0x3e3f9c63	0.18712
157	0xbcfeb38d	-0.031091476
158	0xbddb5750	-0.10710013
159	0xbe1a2058	-0.150514
160	0x3d6a4ff0	0.05720514
161	0xbe017648	-0.12642777
162	0xbe2ce8aa	-0.1688563
163	0xbda6da7d	-0.08147142
164	0xbc8d0b7d	-0.017217392
165	0xbe7af442	-0.2450724
166	0xbc010f88	-0.007877238
167	0x3c81ab69	0.015828805
168	0xbe260f7f	-0.16216849
169	0x3d88eb74	0.06685534
170	0x3d28faff	0.041254994
171	0xbe41afb8	-0.18914688
172	0xbe2ae581	-0.16689111
173	0xbe0af92e	-0.13571617
174	0xbe2e80e8	-0.17041361
175	0x3df5ec44	0.12007955
176	0x3e110114	0.14160568
177	0x3ea08c0a	0.3135684
178	0x3ebb7aab	0.36617026
179	0x3e752170	0.23938537
180	0xbe5b8f81	-0.21441461
181	0x3c849e70	0.01618883
182	0xbde5d1ba	-0.11221643
183	0x3d850e5c	0.064968795
184	0x3d08a5ec	0.03336136
185	0xbe96e0ea	-0.2946847
186	0xbea4e19c	-0.32203376
187	0xbdf2932b	-0.11844476
188	0xbe5d209a	-0.21594468
189	0xbc804096	-0.015655797
190	0x3d4b2fc4	0.0496061
191	0xbe5d526c	-0.21613473
192	0xbe855c29	-0.26046875
193	0x3d478aad	0.048716236
194	0xbe5f2106	-0.21789941
195	0x3e55fa57	0.20896278
196	0x3e3d6e4c	0.18499106
197	0xbb653636	-0.003497494
198	0xbe3b80a0	-0.18310785
199	0xbdce2461	-0.100655325
200	0x3e2e4ebe	0.17022225
201	0xbe5688aa	-0.2095057
202	0xbe3ade28	-0.18248808
203	0x3d3f2235	0.04666348
204	0xbe1bb490	-0.15205598
205	0x3dccce97	0.100003414
206	0x3e277005	0.16351326
207	0x3e09aea6	0.1344553
208	0xbe172ffb	-0.14764397
209	0xbe0c6f0a	-0.13714233
210	0x3e8a2af6	0.26985902
211	0x3e983fdd	0.29736224
212	0x3e46c0e2	0.19409516
213	0xbc958fa7	-0.018256975
214	0xbd38833b	-0.045047026
215	0x3e919f58	0.28441882
216	0x3e999eb1	0.30003884
217	0xbe6ce96e	-0.23135921
218	0xbeb111f5	-0.34584013
219	0xbe857709	-0.2606738
220	0x3e484e63	0.19561152
221	0x3dd02794	0.10163799
222	0xbe97d3e7	-0.29653856
223	0xbda3f648	-0.08005959
224	0x3e08a2a8	0.13343298
225	0xbe422559	-0.1895956
226	0xbeb0890f	-0.34479567
227	0x3e001cac	0.12510937
228	0x3eb1b90d	0.34711495
229	0x3eaabb26	0.33345908
230	0xbe88d646	-0.26725978
231	0xbe6204c5	-0.22072132
232	0x3e5edeb6	0.21764645
233	0x3ebd27c1	0.36944392
234	0xbd3e8bbf	-0.04651999
235	0xbe0b54b5	-0.13606532
236	0x3d9aeb2e	0.07564388
237	0x3e9e8e76	0.30968064
238	0x3d0d1280	0.03444147
239	0xbdb62662	-0.0889404
240	0xbd709d47	-0.05874374
241	0xbc8943a1	-0.01675588
242	0x3dd34be3	0.103172086
243	0x3d9a5cba	0.075372174
244	0xbdd06e83	-0.101773284
245	0xbc43f569	-0.011960366
246	0xbc9830e1	-0.018577995
247	0x3e6e1edb	0.23253958
248	0x3d1a075b	0.03760467
249	0xbe6255a3	-0.2210298

conv1.bias f4 [10]
0	0x3d376621	0.044775132
1	0x3e651aea	0.22373548
2	0x3d534b0e	0.05158525
3	0x3cb45d82	0.022017244
4	0x3e6aba3f	0.2292261
5	0x3eaa4fbd	0.3326396
6	0xbe22e8ed	-0.15909167
7	0xbe3ea62d	-0.18618079
8	0x3e8a8e41	0.27061656
9	0x3e6ebef3	0.23315029

conv2.weight f4 [20, 10, 5, 5]
0	0x3d0afe24	0.033933774
1	0xba1e5473	-0.00060398056
2	0xbd7a3f0d	-0.061095286
3	0xbdacc6c5	-0.0843635
4	0x3c0764e1	0.0082637975
5	0x3de15a33	0.11003532
6	0x3d22723a	0.039659716
7	0xbcc21587	-0.023691906
8	0xba593071	-0.00082851114
9	0x3d693d90	0.056943476
10	0x3d57e4f4	0.05270858
11	0xbce0be0f	-0.027434377
12	0x3d6f6ff6	0.058456384
13	0x3cf3b315	0.029748479
14	0x3d9b7c4b	0.075920664
15	0x3ca9c1e1	0.020722331
16	0x3d8c2628	0.06843215
17	0x3dbb68b3	0.09150829
18	0x3da30cca	0.07961424
19	0x3cbb66a2	0.022876088
20	0x3c3a40d1	0.0113679925
21	0x3d1e733f	0.038684126
22	0xbd3e48be	-0.04645609
23	0xbd11733a	-0.03551028
24	0xbcef0db1	-0.029181333
25	0xbe1383a7	-0.1440569
26	0xbcc993db	-0.024606636
27	0x3d20adbb	0.039228182
28	0xbc6f2dd1	-0.014598326
29	0xbd16d64e	-0.03682547
30	0xbd878ec6	-0.06619029
31	0xbc0b7e34	-0.008513976
32	0x3cd4effc	0.02599334
33	0xbd8e2e16	-0.06942384
34	0xbdbbd178	-0.09170812
35	0xbdc9f72e	-0.09861599
36	0xbc841148	-0.016121522
37	0x3d07fb5f	0.03319871
38	0xbc0258a9	-0.007955709
39	0xbdb520b6	-0.0884413
40	0xbe185809	-0.14877333
41	0xbd1ea8f3	-0.03873534
42	0xbd8bfbb1	-0.06835116
43	0xbd4df6fa	-0.050284363
44	0xbd473029	-0.048629913
45	0xbcae8b7b	-0.021306744
46	0xbd6c5818	-0.0577012
47	0xbd950c8b	-0.07277783
48	0xba69c0ce	-0.0008916975
49	0xbd7f98a3	-0.062401425
50	0xbcdebca9	-0.02718957
51	0xbc7488f1	-0.0149252275
52	0x3c079b68	0.008276798
53	0x3cb7224a	0.022355217
54	0x3d21ce3b	0.039503317
55	0xbe15f206	-0.14643106
56	0x3ced8c23	0.028997486
57	0xbd84b432	-0.06479682
58	0xbddc388f	-0.10752975
59	0xbd9c4e21	-0.076320894
60	0xbdb2a7fb	-0.08723446
61	0xbd37f370	-0.044909894
62	0xbd36f938	-0.044671267
63	0xbd4ccb9e	-0.049998872
64	0xbb9ffbfc	-0.004882334
65	0xbc285e4a	-0.0102763865
66	0xbcf6891d	-0.030094678
67	0xbd985f7c	-0.07440087
68	0xbdd117dc	-0.10209629
69	0xbb3b240d	-0.0028555423
70	0x3d211597	0.03932723
71	0xbcfa1451	-0.030527266
72	0xbd0c3037	-0.03422567
73	0x3ca70168	0.020386413
74	0xbcfec531	-0.031099888
75	0xbdb6fce8	-0.08934957
76	0xbca8b31a	-0.020593215
77	0x3db24eda	0.08706446
78	0x3da61064	0.08108595
79	0x3c8fabfc	0.017538063
80	0xbc9af877	-0.018917305
81	0xbda07c9a	-0.07836266
82	0x3cbdb7a2	0.023158852
83	0x3d853377	0.06503957
84	0x3d0894c6	0.033345006
85	0xbddaa40e	-0.10675822
86	0x3d11d779	0.03560588
87	0x3d91988a	0.07109173
88	0x3d170e70	0.036879003
89	0x3d5aa396	0.053378664
90	0xbd921185	-0.07132248
91	0x3d42d747	0.047568586
92	0x3ca3d473	0.019998765
93	0x3c61d79c	0.013784315
94	0xbc8c24df	-0.017107425
95	0xbcf31722	-0.029674117
96	0xbcb21067	-0.021736337
97	0x3d6a633e	0.05722355
98	0x3c53d8bb	0.012930091
99	0x3b3550c2	0.0027666544
100	0xbd2bd260	-0.041948676
101	0xbd0c89ca	-0.034311093
102	0x3d9dd367	0.077063374
103	0xbcf38c6a	-0.02973004
104	0xbd91c768	-0.07118112
105	0xbdfdbcaa	-0.123895004
106	0x3d11997a	0.035546757
107	0x3c9ed86e	0.019390311
108	0xbdbbbcdf	-0.09166884
109	0xbd482d58	-0.04887137
110	0xbdb0f858	-0.08641118
111	0xbafb21f0	-0.0019159894
112	0x3cca7e23	0.02471835
113	0xbcc3b942	-0.023892049
114	0x3bb7bcce	0.005607224
115	0x3dc1f123	0.09469821
116	0x3d8cec22	0.06880976
117	0x3d54c60d	0.05194669
118	0x3d5c4f9e	0.053786866
119	0xbdb09ed8	-0.08624047
120	0x3e0a1e21	0.13488056
121	0x3dce2c31	0.100670226
122	0x3e15483e	0.1457834
123	0x3da6b726	0.081404015
124	0xbdb3d776	-0.0878133
125	0xbd9d0da1	-0.07668615
126	0xbdd56e91	-0.104214795
127	0xbd4f6911	-0.05063731
128	0x3cfce915	0.03087286
129	0xbd2a71eb	-0.041612547
130	0xbde56280	-0.11200428
131	0xbd253d86	-0.040341876
132	0x3dc31f88	0.095274985
133	0x3d3369ba	0.043802
134	0xbd3e802b	-0.04650895
135	0xbe47d6ba	-0.19515505
136	0x3cd7cd07	0.026342882
137	0x3d29e961	0.041482333
138	0x3d833175	0.064059176
139	0xbd72c659	-0.05927119
140	0xbdd2ba83	-0.102894805
141	0x3d146866	0.036232375
142	0x3c7fed1f	0.015620499
143	0x3d4730c3	0.048630487
144	0xbda24543	-0.07923367
145	0x3d0fd9cd	0.03511982
146	0x3d5126ff	0.05106258
147	0x3d9d30b4	0.07675305
148	0x3dae1898	0.08500785
149	0x3d6c1f75	0.057647187
150	0x3c94d094	0.018165864
151	0x3da1bb4e	0.07897054
152	0x3c05bd6b	0.008162837
153	0x3d39d5a4	0.04536976
154	0xbc26680f	-0.010156645
155	0x3d710810	0.05884558
156	0x3d8ffb80	0.07030392
157	0xba2eebb5	-0.00066726963
158	0x3c635765	0.013875817
159	0x3dab647e	0.08368777
160	0xbcc84d8b	-0.024451038
161	0x3d623d66	0.055234335
162	0xbd2c69b8	-0.04209301
163	0xbc5d5ce1	-0.013510914
164	0xbc8edce6	-0.017439317
165	0xbda0343a	-0.078224614
166	0xbcf4027f	-0.029786346
167	0x3d0b667f	0.034033295
168	0xbd922467	-0.071358494
169	0xbd297545	-0.041371603
170	0xbb5c8529	-0.0033648706
171	0xbdc9ff45	-0.09863142
172	0xbd8467b5	-0.06465093
173	0xbbe6ca0a	-0.007043128
174	0x3d0a226c	0.033724234
175	0xbd867f2d	-0.065672256
176	0xbd95b8fc	-0.073106736
177	0xbdc744b9	-0.09729905
178	0xbd80c7a1	-0.06288076
179	0x3cfec5e9	0.03110023
180	0xbda67b30	-0.08128965
181	0xbe07b9a2	-0.13254407
182	0xbadcbbb8	-0.0016840613
183	0xbd067adb	-0.032832008
184	0x3cf9a1c2	0.03047264
185	0x3ccfacac	0.025350891
186	0xbd6e8300	-0.0582304
187	0xbdad798c	-0.08470449
188	0xbc4ec1f7	-0.012619487
189	0xbce25c2a	-0.027631838
190	0xbc21d0ec	-0.009876471
191	0xbdc64b1d	-0.096822955
192	0xbd7378aa	-0.059441246
193	0x3d31dfe2	0.043426402
194	0x3c90f8eb	0.017696818
195	0xbdfcd308	-0.123449385
196	0xbdec19e5	-0.115283765
197	0xbcd1a1fe	-0.02558994
198	0x3cfc6d3a	0.030813802
199	0xbbc36dfa	-0.005964038
200	0x3ca619d5	0.02027599
201	0xbdd076c5	-0.101789035
202	0xbd1b5a44	-0.03792788
203	0x3e042432	0.12904432
204	0x3dc23dbc	0.09484431
205	0xbd821da0	-0.06353307
206	0xbd917a2e	-0.07103382
207	0x3da64baa	0.081199005
208	0x3b2b85cb	0.0026172276
209	0x3c90d8bc	0.017681472
210	0xbe197515	-0.1498607
211	0xbd9368e5	-0.071977414
212	0xbc241449	-0.010014602
213	0xbd1f8bf4	-0.03895183
214	0xbdaf583d	-0.08561752
215	0xbcd89a22	-0.026440684
216	0xbd238fc3	-0.039932024
217	0x3ca46d53	0.020071661
218	0xbcec152e	-0.028818693
219	0xbd9d1e9b	-0.07671853
220	0x3d3aa08d	0.04556327
221	0x3da05287	0.07828241
222	0x3d140218	0.03613481
223	0x3d19b3df	0.037525054
224	0x3d80a645	0.062817134
225	0xbd91bf03	-0.07116511
226	0x3dc7a2b2	0.097478285
227	0x3e00889c	0.12552112
228	0x3dfe67f0	0.12422168
229	0x3d8ea4fe	0.069650635
230	0xbdea6491	-0.11444963
231	0x3d8d0df0	0.06887424
232	0x3e21f40e	0.15815756
233	0x3dc6c91e	0.09706329
234	0xbd4b95dc	-0.049703464
235	0xbd30e835	-0.0431902
236	0x3d6618f6	0.05617615
237	0x3df7c0d7	0.12097328
238	0x3c368fe3	0.011142704
239	0x3c88e0bd	0.016708726
240	0xbd88589a	-0.066575244
241	0x3d2de2a1	0.04245246
242	0xbcba8e23	-0.022772854
243	0xbd207ace	-0.039179616
244	0x3cd44e4d	0.025916243
245	0x3b220826	0.0024724095
246	0x3d06b8cd	0.032891084
247	0x3d072e80	0.03300333
248	0x3d13ff7d	0.036132324
249	0xbb6f1159	-0.0036478846
250	0xbbd8b287	-0.006613079
251	0x3d83568f	0.06412994
252	0x3d8d9f71	0.06915177
253	0xbd245ad4	-0.040125683
254	0x3c67d71b	0.014150406
255	0xbd13047c	-0.03589295

conv2.bias f4 [20]
0	0x3c9be668	0.019030765
1	0x3d2b9228	0.041887432
2	0x3d40c867	0.04706612
3	0x3d771b61	0.060328845
4	0xbd61fe8a	-0.055174388
5	0x3c039c95	0.0080329375
6	0xbc12e1ee	-0.008964999
7	0xbd8d8dc6	-0.06911807
8	0x3d44408c	0.04791312
9	0x3d741444	0.05958964
10	0xbd0f70f4	-0.03501983
11	0xbb966e34	-0.004590774
12	0xbd7055dc	-0.058675632
13	0xbcc72748	-0.024310723
14	0xbd87626d	-0.0661057
15	0xbc8cc6f8	-0.01718472
16	0x3c8fa7e3	0.01753611
17	0xbd1cece1	-0.038311843
18	0x3c2c3f61	0.010513158
19	0xbc85f728	-0.016353205

fc1.weight f4 [50, 320]
0	0xbc99d8c6	-0.018780123
1	0xbcd57020	-0.026054442
2	0xbdcd6e3c	-0.10030791
3	0xbdba3b2c	-0.090933174
4	0x3d59b0dd	0.053147186
5	0xb9d38c3b	-0.00040349536
6	0x3cd791b2	0.02631459
7	0x3d2aaa5f	0.041666385
8	0xbd215793	-0.039390158
9	0xbd644053	-0.055725407
10	0x3c0ab77c	0.008466598
11	0x3ce3c27a	0.027802695
12	0x3daa1b0c	0.0830594
13	0x3d8e8e30	0.06960714
14	0x3cd718f5	0.026257018
15	0x3c5a7606	0.013333803
16	0x3d896509	0.06708724
17	0xbca38534	-0.019960977
18	0x3dd4dfc1	0.1039424
19	0x3cd8f499	0.02648382
20	0xbdaadc3a	-0.08342786
21	0x3c9f2467	0.019426538
22	0x3be04722	0.006844417
23	0x39974e22	0.00028859178
24	0xbd7cec52	-0.06174881
25	0xbc878638	-0.016543493
26	0x3ca286f3	0.01983974
27	0xbd1eec09	-0.03879932
28	0x3d32835b	0.0435823
29	0x3b64dccc	0.0034921644
30	0xbd2449b4	-0.04010935
31	0xbd15c510	-0.036564887
32	0xbd86ae3b	-0.065762006
33	0xbdda6ce8	-0.106653035
34	0xbd575e49	-0.05258015
35	0x3ca8601f	0.020553647
36	0xbcb4e9e0	-0.022084177
37	0x3cd72d71	0.026266785
38	0x3bfa0fdc	0.007631285
39	0x3c4a73a4	0.012356672
40	0x3d26806f	0.040649828
41	0xbd88275c	-0.06648132
42	0xbd83ea4c	-0.06441173
43	0x3d1f80ca	0.038941182
44	0x3c8b65ca	0.01701631
45	0xbcaaa455	-0.020830313
46	0x3d29067d	0.041265953
47	0xbd654854	-0.05597718
48	0x3c2f2ca0	0.010691792
49	0xbe042816	-0.12905917
50	0xbd0a0a41	-0.033701185
51	0x3d7bc9fe	0.06147193
52	0xbd5cea44	-0.05393435
53	0xbc956766	-0.01823778
54	0xbdce413d	-0.10071037
55	0xbdb4c641	-0.088268764
56	0x3ca9934d	0.020700121
57	0xbb56868e	-0.003273401
58	0x3cca6bcf	0.02470961
59	0xbce8fce2	-0.028440896
60	0x3d2da3be	0.042392485
61	0xbd0e06cc	-0.03467445
62	0xbd928593	-0.071543835
63	0xbc209305	-0.009800677
64	0xbd8d34cc	-0.06894836
65	0x3ccde1db	0.02513211
66	0x3c0b8541	0.008515657
67	0x3d73f384	0.059558406
68	0xbdd08d29	-0.10183174
69	0xbde245d5	-0.11048476
70	0x3d59da7a	0.05318687
71	0xbc3a260a	-0.011361608
72	0xbd2f51dd	-0.04280268
73	0x3ce733ba	0.028222907
74	0x3d31cf55	0.043410618
75	0x3cf0e224	0.029404707
76	0x3b8d1a6b	0.004306128
77	0xbb8cedae	-0.0043007946
78	0xbcce5aac	-0.02518972
79	0x3d5d5e91	0.054045264
80	0x3c0500e1	0.008117885
81	0xbc8448f1	-0.016148062
82	0xbce690fd	-0.028145308
83	0x3bf3d30a	0.0074409293
84	0x3ce4b965	0.027920434
85	0xbd817c73	-0.06322565
86	0x3d6abda7	0.057309773
87	0x3dc343f9	0.09534449
88	0xbcb151c1	-0.021645429
89	0x3a6ffd66	0.0009154886
90	0x3db60c30	0.08889043
91	0xbca34a4b	-0.019932887
92	0xbd40d686	-0.047079585
93	0x3a24caa4	0.00062862993
94	0x3b95fee5	0.004577505
95	0xbbb89149	-0.0056325537
96	0xb995daff	-0.0002858266
97	0xbd100dd3	-0.035169434
98	0xbcaae8dd	-0.020862991
99	0x3c61a334	0.013771821
100	0xbd2077ef	-0.039176878
101	0x3a42b070	0.0007426804
102	0xbc45e6d4	-0.0120789595
103	0xbd563b96	-0.05230292
104	0x3afdedc4	0.0019373228
105	0x3cd057b8	0.025432453
106	0x3d73ffcd	0.059570123
107	0x3c38c7cb	0.011278103
108	0xbae67c06	-0.0017584569
109	0x3cdec686	0.027194273
110	0xbc12fcf8	-0.008971445
111	0xbc4597cd	-0.012060118
112	0x3dd4dd75	0.10393802
113	0x3d8a7c3e	0.067619786
114	0x3db0d077	0.086335115
115	0xbce01d04	-0.027357586
116	0x3c31489e	0.010820536
117	0x3d0fad7d	0.03507756
118	0x3e000aae	0.12504074
119	0x3d0c221f	0.034212228
120	0xbd795041	-0.06086755
121	0xbd8ed5ba	-0.06974359
122	0xbd149643	-0.036276113
123	0x3d397c91	0.04528481
124	0xbd63c38b	-0.055606406
125	0xbcbd408a	-0.023102064
126	0xbc3679fd	-0.011137483
127	0x3b9595c9	0.004564975
128	0xbc8cb12c	-0.017174326
129	0x3d029d95	0.031888563
130	0xbcfdbe72	-0.0309746
131	0x3cc87da5	0.024473974
132	0xbc491679	-0.012273424
133	0xbc612f88	-0.0137442425
134	0x3cd91be6	0.02650256
135	0xbd0bbc24	-0.03411497
136	0x3a6fe0a7	0.0009150602
137	0x3d2a98bf	0.041649576
138	0xbcf7212b	-0.030167183
139	0x3c4d3ab8	0.012526207
140	0x3d4ffb2c	0.050776646
141	0xbbb5503e	-0.0055332473
142	0x3d798a42	0.06092287
143	0xbcaaea72	-0.020863745
144	0xbcdc6d77	-0.026907666
145	0x3c79c8f9	0.0152456695
146	0x3de1029b	0.10986825
147	0xbd21e5e7	-0.039525893
148	0x3d6abca0	0.057308793
149	0x3da338de	0.07969831
150	0x3db715e9	0.08939726
151	0x3c93aa6a	0.018025596
152	0xbd8746cd	-0.06605301
153	0xbc5f3c95	-0.013625284
154	0x3d30d70f	0.043173846
155	0xbdb1c3dc	-0.08679935
156	0xbd481fc0	-0.048858404
157	0x3ba08e82	0.0048998008
158	0x3cc9ca85	0.024632702
159	0x3d6e02ad	0.05810802
160	0xbc0e9592	-0.0087026525
161	0xbcfc48d1	-0.03079644
162	0x3c0191e1	0.007908315
163	0x3d4c612b	0.049897354
164	0xbae53d78	-0.0017489633
165	0xbd32f384	-0.043689266
166	0xbb636039	-0.0034694804
167	0x3dbc01fd	0.09180067
168	0xbc83cc3c	-0.016088597
169	0xbcbc4f51	-0.02298704
170	0x3cc952b4	0.024575569
171	0xbd1d1c2d	-0.03835695
172	0x3d533647	0.051565435
173	0xbd005642	-0.03133226
174	0xbd962ec6	-0.0733314
175	0xbd0e1399	-0.03468666
176	0x3befba2d	0.007315895
177	0x3b48c3aa	0.0030634203
178	0xbdb93824	-0.09043911
179	0xbe26826a	-0.16260687
180	0xbc0fac8a	-0.008769164
181	0x3cc9c708	0.024631038
182	0x3d42038f	0.047366675
183	0x3a1fbddc	0.000609366
184	0x3d0311c9	0.031999383
185	0xbd70f3a3	-0.0588261
186	0x3d879662	0.0662048
187	0x3c76840c	0.015046131
188	0xbb80e8d6	-0.003934006
189	0x3da260ac	0.07928595
190	0x3d9dac1b	0.07698842
191	0xbc5e67e7	-0.013574577
192	0x3d21a395	0.039462645
193	0x3d39c8d5	0.045357544
194	0x3d85c3fd	0.065315224
195	0xbd999164	-0.07498434
196	0xbd3dec40	-0.046367884
197	0xbc79198a	-0.015203843
198	0x3a1949a0	0.0005847458
199	0x3b095c8c	0.0020959703
200	0xbd09cf0c	-0.03364472
201	0xbd893390	-0.06699288
202	0x3be965e0	0.00712274
203	0xbcb566b3	-0.022143697
204	0xbcfa37df	-0.03054422
205	0xbc2099aa	-0.009802261
206	0xbcaa7cc5	-0.020811448
207	0x3ca0a46e	0.019609656
208	0x3cdb9586	0.026804697
209	0x3ced9c89	0.029005306
210	0x3dacc199	0.08435363
211	0x3cafc6ea	0.021457154
212	0xbbbe3da1	-0.0058056866
213	0x3d0a6e12	0.033796377
214	0x3c7517fa	0.01495933
215	0xbdc5951a	-0.096475795
216	0xbd1e9a10	-0.038721144
217	0x3cec20f7	0.028824313
218	0x3c78e2e1	0.015190811
219	0x3dc0229f	0.093816034
220	0xbd34a70e	-0.04410463
221	0xbc78062b	-0.015138189
222	0x3d05ee37	0.032697883
223	0x3bbe67df	0.0058107222
224	0x3d167a6b	0.03673784
225	0x3db542ea	0.088506535
226	0x3d2e40ec	0.042542383
227	0xbcecb586	-0.02889515
228	0x3d464ee1	0.04841507
229	0x3d1837cd	0.03716259
230	0x3d874fe3	0.06607034
231	0xbd86c0cc	-0.06579742
232	0xbcc2271e	-0.023700293
233	0x3c974363	0.01846475
234	0x3cb8a96e	0.022541728
235	0xbd52ee46	-0.051496767
236	0xbd287802	-0.041130073
237	0xbd65e08b	-0.056122344
238	0xbb6439b2	-0.0034824428
239	0x3c4aecb7	0.012385539
240	0x3d938dfe	0.07204817
241	0x3d4d317c	0.05009602
242	0x3d3b118a	0.045671023
243	0xbd81d6b0	-0.063397765
244	0x3b5334b6	0.0032227463
245	0x3d5daf12	0.05412204
246	0x3d947970	0.07249725
247	0x3c337476	0.010953059
248	0x3c5ccf22	0.013477119
249	0x3d223a05	0.039606113
250	0x3b39bce7	0.0028341354
251	0x3aec2822	0.0018017332
252	0x3c4a3a24	0.012342963
253	0xbc2a01de	-0.010376422
254	0x3d08434f	0.033267315
255	0x3c91f3cf	0.017816452

fc1.bias f4 [50]
0	0x3d290b37	0.04127046
1	0xbd88a463	-0.06671979
2	0xbd271871	-0.040794794
3	0xbc2dc51b	-0.010606076
4	0xbd14c5a6	-0.036321305
5	0xbcd89ffe	-0.026443478
6	0x3d3ee5ff	0.04660606
7	0xbca512f6	-0.020150643
8	0xbd281d1e	-0.041043393
9	0xbcddd9a2	-0.027081314
10	0xbb52d34e	-0.0032169404
11	0x3d754f76	0.059890233
12	0xbc770a1c	-0.015078094
13	0x3d955a64	0.07292631
14	0x3ca544a0	0.020174325
15	0xbba5926e	-0.005052856
16	0xbcd17d19	-0.025572347
17	0x3c33c892	0.010973113
18	0x3d1a1a55	0.03762277
19	0xbc3f3824	-0.0116711
20	0x3d2accf2	0.041699357
21	0xbd56c533	-0.052434158
22	0xbc897ac6	-0.016782176
23	0xbd2a8c7b	-0.04163788
24	0xbbd37a72	-0.0064538056
25	0xbc78f439	-0.015194946
26	0xbd19e1b6	-0.03756877
27	0xbc0210d7	-0.007938585
28	0xbd20cfc2	-0.039260633
29	0x3d18592d	0.03719442
30	0x3c481a3f	0.012213289
31	0x3d581917	0.052758303
32	0x3c8f7912	0.017513786
33	0xbd77856c	-0.060429975
34	0xbd095e55	-0.033537228
35	0x3d6e139b	0.058124166
36	0x3caed565	0.021341989
37	0xbbed4ada	-0.007241589
38	0xbd7dfd59	-0.06200919
39	0xbd1724a5	-0.03690018
40	0x3c95e8e1	0.018299522
41	0x3cef88b0	0.029239982
42	0x3d6301ae	0.055421524
43	0xbcf28c71	-0.029607983
44	0xbbe83088	-0.0070858635
45	0x3cc91637	0.024546726
46	0x3d47350a	0.048634566
47	0xbd087c24	-0.033321515
48	0x3cd52913	0.026020562
49	0xbce67689	-0.028132694

fc2.weight f4 [10, 50]
0	0x3d714ae9	0.05890933
1	0x3e1ed92b	0.1551253
2	0xbe0d23e9	-0.1378323
3	0xbe68c433	-0.22731094
4	0xbe2808c4	-0.16409594
5	0x3e0b66f3	0.13613491
6	0xbe70e87f	-0.2352619
7	0xbdcb3c61	-0.09923626
8	0xbe61fbf9	-0.22068776
9	0xbd7af888	-0.061272174
10	0xbe7170f8	-0.2357825
11	0xbbe7a9ac	-0.007069787
12	0xbe4001c3	-0.18750672
13	0x3e11cf87	0.14239322
14	0xbddea678	-0.10871595
15	0xbe6b3cd6	-0.22972426
16	0xbe1d0f6e	-0.15337917
17	0xbe36cd9b	-0.1785187
18	0x3db26c5e	0.08712076
19	0xbda55216	-0.08072297
20	0xbe73c240	-0.23804569
21	0xbc1569b9	-0.0091194445
22	0xbdbf6802	-0.0934601
23	0x3e166d13	0.14690046
24	0x3d90a9d5	0.07063643
25	0x3d5de680	0.0541749
26	0x3db7ad6a	0.08968623
27	0x3dba763a	0.09104581
28	0x3c9d44e2	0.019197885
29	0xbe4b227d	-0.19837375
30	0xbdc9825e	-0.09839319
31	0x3d9ad09a	0.07559319
32	0xbd896665	-0.06708983
33	0xbdbd47b3	-0.09242191
34	0xbe20b837	-0.15695272
35	0x3e06aad3	0.13151102
36	0xbd8d299c	-0.06892702
37	0xbd492825	-0.04911055
38	0x3d340865	0.04395332
39	0xbda449d7	-0.08021896
40	0x3e09bc5f	0.13450764
41	0xbcd978f0	-0.026546925
42	0xbd99214a	-0.074770525
43	0xbe29c8eb	-0.1658055
44	0x3da1effa	0.079071
45	0x3e0649a5	0.1311403
46	0xbe304a6c	-0.1721589
47	0x3e185c6a	0.14879003
48	0x3deadb65	0.114676274
49	0xbe19dd3d	-0.15025802
50	0xbe38199c	-0.17978519
51	0xbdca3e13	-0.09875121
52	0xbdb90640	-0.09034395
53	0x3e19d5be	0.15022942
54	0x3e08c0b3	0.13354759
55	0xbd8bccf9	-0.06826205
56	0xbc23ef26	-0.010005748
57	0x3dfd999f	0.123828165
58	0x3d6b5edb	0.057463508
59	0xbbf14fd7	-0.007364254
60	0x3d422976	0.04740282
61	0x3de953de	0.113929495
62	0x3e1a17f2	0.15048197
63	0xbd4bd668	-0.04976502
64	0xbe72cb62	-0.23710397
65	0xbe6f8a00	-0.23392487
66	0x3c5c9831	0.01346402
67	0xbe6a8afe	-0.22904584
68	0x3bed70d4	0.007246116
69	0x3c9c8661	0.019107046
70	0x3dc59bdd	0.09648869
71	0x3e1e9857	0.154878
72	0x3d80c387	0.06287294
73	0x3dd78bb7	0.10524695
74	0xbe1f1b79	-0.15537824
75	0xbe4a8abc	-0.19779485
76	0x3de6f9b5	0.112780966
77	0xbe225f2b	-0.15856616
78	0x3de33ba6	0.110953614
79	0x3e3db059	0.18524303
80	0x3e05e58c	0.13075846
81	0xbe11dd38	-0.14244545
82	0xbdcdae20	-0.10042977
83	0xbdd621ad	-0.10455642
84	0x3cba3e60	0.02273482
85	0xbdeca27d	-0.1155443
86	0x3d787d1f	0.0606662
87	0x3bbf2337	0.0058330554
88	0xbe1d147a	-0.15339842
89	0x3d439a2b	0.047754448
90	0x3dcdf25d	0.10055993
91	0xbc9b4ed0	-0.01895848
92	0xbdf15447	-0.11783653
93	0x3d860644	0.06544164
94	0xbe2e2668	-0.17006838
95	0xbbae7fd3	-0.0053252964
96	0xbe3c072a	-0.18362108
97	0xbe356b58	-0.1771673
98	0xbe3505cc	-0.17677993
99	0xbe31bffb	-0.17358391
100	0x3d9def19	0.0771162
101	0xbda89010	-0.08230603
102	0xbd23ea02	-0.04001809
103	0xbe17fcf7	-0.14842592
104	0xbe1ea62d	-0.15493079
105	0xbdd02b8d	-0.10164557
106	0x3caeff25	0.021361897
107	0x3e044f8d	0.12920971
108	0x3dafcbed	0.08583818
109	0x3e0e94c6	0.1392394
110	0x3d6ad8b9	0.05733559
111	0xbe5c28dc	-0.21499962
112	0xbd9a7def	-0.07543551
113	0xbcdfde32	-0.02732763
114	0xbd85b217	-0.065281086
115	0xbe579464	-0.210527
116	0x3d09b612	0.0336209
117	0x3d543cf9	0.05181596
118	0x3d6f7cab	0.058468502
119	0xbd98013d	-0.07422111
120	0xbd9988b2	-0.07496776
121	0xbda6632f	-0.081243865
122	0xbd3ca1f0	-0.046052873
123	0xbdf416d4	-0.119184166
124	0x3d4a2e6e	0.049360685
125	0x3b790af8	0.0038000923
126	0x3d2b143d	0.041767348
127	0xbd445216	-0.047929846
128	0xbe1a7b4d	-0.15086098
129	0xbd61413d	-0.054993857
130	0x3e0c91fd	0.13727565
131	0x3df14038	0.11779827
132	0x3dece804	0.11567691
133	0x3db280d8	0.08715981
134	0x3e09be1d	0.13451429
135	0xbe1da127	-0.15393506
136	0x3dba30fe	0.09091376
137	0xbc1186b3	-0.008882212
138	0xbd6304a6	-0.055424355
139	0xbe045bb6	-0.1292561
140	0x3db53d92	0.08849634
141	0xbd0e5bb5	-0.034755427
142	0x3e0f7d16	0.1401256
143	0xbdb4fdf3	-0.088374995
144	0x3c88a12e	0.016678419
145	0x3d39ccc0	0.04536128
146	0xbd85d973	-0.06535616
147	0x3dabcdc4	0.08388856
148	0xbd0a9a27	-0.033838417
149	0xbe3123ae	-0.17298767
150	0x3d719296	0.058977686
151	0xbcc5fd7c	-0.024168722
152	0xbd947f50	-0.072508454
153	0xbe369c64	-0.17833096
154	0xbe26fa6d	-0.16306467
155	0xbe411485	-0.18855484
156	0xbd716302	-0.05893231
157	0xbe3c3214	-0.18378478
158	0x3d73204b	0.05935697
159	0xbda72967	-0.08162194
160	0xbd844a87	-0.064595275
161	0xbd373d03	-0.04473592
162	0xbdd35297	-0.10318487
163	0x3d6d84df	0.057988044
164	0x3c5c40d3	0.01344319
165	0x3da4efbd	0.08053539
166	0x3da36685	0.079785384
167	0xbd7c2568	-0.06155911
168	0x3d16660a	0.036718406
169	0x3dea8dde	0.1145284
170	0x3c8a42c0	0.016877532
171	0xbe03a2c8	-0.12855065
172	0xbb24c0ad	-0.0025139258
173	0x3d9987be	0.07496594
174	0xbe533d50	-0.20628858
175	0x3cbae21f	0.022812901
176	0xbe123fb8	-0.1428212
177	0xbd103566	-0.035207175
178	0x3deb4e7b	0.11489578
179	0x3e1fb718	0.15597188
180	0x3e0f3a45	0.13987072
181	0xbdd178e4	-0.10228136
182	0x3d88ae38	0.066738546
183	0x3d8662cb	0.06561812
184	0x3dc87329	0.0978759
185	0xbe1fd2b4	-0.1560772
186	0x3da62c7f	0.08113956
187	0xbddb175e	-0.10697816
188	0x3cb63142	0.022240285
189	0x3c8042d7	0.015656872
190	0xbe3d68a6	-0.18496951
191	0xbd534b2c	-0.05158536
192	0x3e1e1d03	0.15440755
193	0x3db50706	0.0883923
194	0xbe0d172b	-0.13778369
195	0x3e227f34	0.15868837
196	0x3dc367f0	0.09541309
197	0xbe2553da	-0.16145268
198	0x3de7ad07	0.11312299
199	0xbe24712a	-0.16058794
200	0xbe66b49d	-0.22529836
201	0x3dcaf955	0.099108376
202	0xbd9017ea	-0.07035811
203	0x3dd0e6e8	0.10200292
204	0xbdd65ce2	-0.10466935
205	0x3e2a2b66	0.16618118
206	0xbd8ce6cd	-0.06879959
207	0x3dcce3c9	0.10004384
208	0xbe12bf8d	-0.14330883
209	0x3de0aed0	0.10970843
210	0xbd7ee2fc	-0.062228188
211	0xbcd125c0	-0.025530696
212	0x3ddc58cf	0.107591264
213	0xbe19e902	-0.15030292
214	0x3e01c6a4	0.12673432
215	0xbd9f06d3	-0.077649735
216	0x3d0339ee	0.032037668
217	0x3e11d8cd	0.14242859
218	0xbe070224	-0.1318441
219	0x3c172fe2	0.009227725
220	0x3dd569dc	0.10420582
221	0x3e18b205	0.14911659
222	0x3d557986	0.052117847
223	0xbd7f82b2	-0.0623805
224	0x3d92e090	0.07171738
225	0xbe3a20f3	-0.18176632
226	0xbe0d3329	-0.13789047
227	0x3de318ca	0.110887125
228	0x3e0a3560	0.13496923
229	0x3deb4929	0.114885636
230	0xbd906838	-0.07051128
231	0xbd3cc05d	-0.04608189
232	0x3e1bf077	0.15228449
233	0xbdebcd07	-0.11513715
234	0xbe299515	-0.16560777
235	0xbe22b6ad	-0.15889998
236	0x3d2e4b8c	0.042552516
237	0x3e0532f5	0.1300772
238	0x3e175844	0.14779764
239	0xbd064dab	-0.032788914
240	0xbb5f1beb	-0.003404374
241	0xbc7e1437	-0.015507749
242	0xbdcbc1a2	-0.09949042
243	0xbdc15940	-0.09440851
244	0xbe57bca5	-0.21068056
245	0xbdf971cd	-0.12179909
246	0x3def26a6	0.116772935
247	0xbd651232	-0.055925556
248	0xbe53d2a9	-0.20685829
249	0x3dc57c13	0.09642806
250	0xbdcd98fe	-0.100389466
251	0xbdb7375d	-0.089461066
252	0xbcdd0565	-0.026980111
253	0xbd8e0def	-0.06936251
254	0x3e090d63	0.13384013
255	0xbd6e7bfd	-0.058223713

fc2.bias f4 [10]
0	0x3dd3a13f	0.103334896
1	0xbb8d02e2	-0.004303322
2	0xbd19463a	-0.03742049
3	0xbd8a82bb	-0.06763216
4	0xbe22c518	-0.15895498
5	0xbddadd8a	-0.106867865
6	0xbe3907b5	-0.18069346
7	0xbb8c3770	-0.0042790696
8	0x3e37667d	0.1791019
9	0x3e352f21	0.1769376

exp_avg f4 [10, 1, 5, 5]
0	0xba1d4739	-0.0005999688
1	0x3a8aff72	0.0010604693
2	0x3a21b859	0.00061691325
3	0x3a86f9c7	0.0010297828
4	0x3b0fe533	0.0021956682
5	0x3aba12a7	0.0014196233
6	0x3b61b853	0.0034442141
7	0x3b1828cd	0.0023217679
8	0x3b632d7f	0.003466457
9	0x3b57aa42	0.0032907878
10	0x3b9926f7	0.0046738344
11	0x3ba5f54c	0.005064642
12	0x3b9db3be	0.0048126867
13	0x3b8a44ad	0.0042196126
14	0x3b6d49ef	0.0036207398
15	0x3bb670b7	0.005567636
16	0x3bf545a0	0.0074851066
17	0x3bfe50a6	0.007761079
18	0x3b8ba6e7	0.0042618397
19	0x39cc5357	0.00038972005
20	0x3bd3e4e2	0.006466494
21	0x3c1592ee	0.009129269
22	0x3bff4233	0.007789874
23	0x3adb7bff	0.0016745328
24	0xbb22ed83	-0.0024860806
25	0xba1faa56	-0.00060907507
26	0x3a9fb26b	0.001218391
27	0x3af257ad	0.0018489264
28	0x3a32bc54	0.0006818224
29	0xb9f8c5ce	-0.00047449622
30	0x3bbc0745	0.0057381713
31	0x3bfdd9c8	0.007746909
32	0x3bfa0724	0.0076302458
33	0x3b9295a1	0.0044734036
34	0x3b2ecf1c	0.002667374
35	0x3c1c23dd	0.009530035
36	0x3c1a3c86	0.009413844
37	0x3bfcc4a9	0.0077138734
38	0x3bd1e903	0.006405951
39	0x3bad7590	0.0052935556
40	0x3b87f3df	0.0041489447
41	0x3a8d1ae7	0.0010765464
42	0x3a9cfabf	0.0011976584
43	0x3b41ec73	0.0029590398
44	0xb92dace8	-0.00016562978
45	0xbae0e368	-0.0017157616
46	0xbb5e7e08	-0.0033949632
47	0x3a9d7063	0.0012011643
48	0x3ad66487	0.0016356864
49	0xbbddffdf	-0.006774887
50	0xbc5a626f	-0.013329132
51	0xbbcea587	-0.0063063535
52	0xb8835dff	-6.264075e-05
53	0x3bf62c68	0.007512618
54	0x3c240846	0.010011738
55	0xbc5d3dbb	-0.013503487
56	0xbb8d77e7	-0.004317272
57	0x3ba505d5	0.0050360956
58	0x3c7b9a1d	0.015356568
59	0x3c6a123c	0.014286574
60	0xbc289aad	-0.010290784
61	0x390d37ce	0.00013467597
62	0x3c0ce7e8	0.008600213
63	0x3c8f5c44	0.01750005
64	0x3c807e3c	0.015685193
65	0xbbed0f4d	-0.00723449
66	0x3b08a5f9	0.002085088
67	0x3c29a263	0.010353657
68	0x3c70e2e9	0.014702537
69	0x3c22e0f2	0.009941326
70	0xbbb8ab8e	-0.0056356853
71	0x3b958a03	0.0045635714
72	0x3c1d3c8b	0.009596954
73	0x3bb54865	0.0055323117
74	0x3aa30c17	0.0012439516
75	0x3a8655ce	0.001024896
76	0xbb946ee1	-0.0045298194
77	0xbacbdd31	-0.0015553591
78	0xba051879	-0.0005077194
79	0xbb2dc054	-0.0026512342
80	0xbb324a52	-0.0027204943
81	0xbbb957e6	-0.0056562303
82	0xbbb0e48a	-0.0053983377
83	0xbba48a2a	-0.0050213533
84	0xbbadf3cd	-0.0053086043
85	0xbbddc4bb	-0.006767837
86	0xbc31f2e0	-0.010861129
87	0xbc1862b3	-0.0093008755
88	0xbbd15d98	-0.006389331
89	0xbb0b8514	-0.0021289038
90	0xbc174eb8	-0.009235077
91	0xbc269120	-0.010166436
92	0xbbf0a6f1	-0.0073441197
93	0xbb170b51	-0.0023047517
94	0x3b925a82	0.004466356
95	0xbbe2527e	-0.0069068065
96	0xbbdc3534	-0.0067202095
97	0xbaed835b	-0.0018120812
98	0x3b4c450b	0.0031169083
99	0x3be15644	0.0068767387
100	0xbb48d3c3	-0.0030643798
101	0xba6923c8	-0.00088935765
102	0x3af3c8d9	0.0018599286
103	0x3a8fe59a	0.0010978461
104	0x3a88c40c	0.0010434403
105	0xbaa81088	-0.001282231
106	0xba5b6d3b	-0.00083704636
107	0x39c9c078	0.00038481108
108	0xb91d63bc	-0.0001500984
109	0x3b32f487	0.0027306394
110	0xbb407032	-0.0029363749
111	0xbad5fd64	-0.0016326127
112	0x39b4d4d7	0.00034490853
113	0xb98ffe60	-0.0002746461
114	0x3b3e972c	0.0029081805
115	0xbbc3850a	-0.005966787
116	0xbb5fe63b	-0.0034164328
117	0xbb5cefb6	-0.0033712215
118	0xbb2f9b55	-0.0026795466
119	0x3b3144d8	0.002704909
120	0xbbfe1cde	-0.007754906
121	0xbbabca9c	-0.005242659
122	0xbb1270c5	-0.0022345048
123	0x3b162b74	0.0022914084
124	0x3bd55470	0.00651031
125	0xbae7298c	-0.0017636283
126	0xbc1e2eee	-0.009654744
127	0xbc5b460e	-0.013383402
128	0xbc331985	-0.010931377
129	0xbbca128b	-0.0061667613
130	0xbb1e5500	-0.002415955
131	0xbbef2477	-0.007298048
132	0xbc08dff9	-0.0083541805
133	0xbb9a5eed	-0.004711023
134	0xbadc1f86	-0.0016794063
135	0x3b138656	0.002251049
136	0xbb0969a1	-0.00209675
137	0xbaf9b9d7	-0.0019052577
138	0xba2cd4db	-0.0006592997
139	0x38d16324	9.984363e-05
140	0x3bc2f190	0.0059492067
141	0x3a6ff091	0.00091529737
142	0x3a0304f1	0.000499799
143	0x3acf1e2c	0.0015801839
144	0x3ae96877	0.0017807622
145	0x3b398dce	0.0028313282
146	0xba76d3a2	-0.0009415691
147	0xbac9103c	-0.0015339921
148	0xbaf80e11	-0.001892509
149	0xbb000308	-0.0019533057
150	0x3af5f5f8	0.0018765321
151	0x3bcb465d	0.0062034563
152	0x3baed147	0.0053350064
153	0x3b734cc5	0.0037124616
154	0x3b799365	0.0038082239
155	0x3a7b8756	0.0009595057
156	0x3b9c55d3	0.004770973
157	0x3a8b96f7	0.001064985
158	0x391d24c7	0.00014986387
159	0x3ac4800f	0.0014991778
160	0x3b2c2097	0.0026264542
161	0x3b1eefe4	0.0024251873
162	0x397f58d4	0.00024351786
163	0x38923780	6.97216e-05
164	0x3a8eab33	0.0010884762
165	0xb962e0de	-0.00021636809
166	0x3a68c374	0.00088792224
167	0x393338d6	0.00017091943
168	0x3a62237e	0.00086265046
169	0x3acbf9c0	0.0015562102
170	0xba4c1704	-0.0007785412
171	0xba18da42	-0.0005830863
172	0xb9c7a0fd	-0.00038076183
173	0xb9989fd3	-0.00029110778
174	0x3a41d0e0	0.00073934905
175	0xbbda3acc	-0.006659841
176	0xbabc4f8b	-0.0014366967
177	0x3b01dab2	0.001981419
178	0x3bfa9326	0.007646936
179	0x3b98ffbc	0.004669158
180	0x39555b07	0.00020347173
181	0x3b766377	0.0037595907
182	0x3b433d49	0.0029791167
183	0x3b022be7	0.0019862594
184	0xbb9154b8	-0.004435148
185	0x3b7e9409	0.003884556
186	0x3b93891f	0.00450243
187	0xb8dca972	-0.00010521979
188	0xbb87c383	-0.00414318
189	0xbbdd0ff9	-0.006746289
190	0x3a68c964	0.0008880107
191	0x399f898b	0.0003042932
192	0xbbd4a712	-0.006489643
193	0xbbf1c3f6	-0.0073780967
194	0xbbb315ee	-0.0054652607
195	0xbbf12c46	-0.007360014
196	0xbc261e8f	-0.010139122
197	0xbc6b0164	-0.014343593
198	0xbc1d3eff	-0.009597539
199	0xbb7a407b	-0.0038185406
200	0xba988814	-0.0011637234
201	0xbaf16c94	-0.00184192
202	0xbb02d991	-0.0019966105
203	0xba954f1e	-0.0011391377
204	0xba010829	-0.00049221754
205	0x3a0d30a1	0.00053859694
206	0x3a608aa3	0.00085655804
207	0x39971ae1	0.0002882099
208	0xbb01062d	-0.001968752
209	0xb9f1d2ce	-0.00046124164
210	0x3b49868c	0.0030750362
211	0x3b0ba790	0.0021309592
212	0xb72f8ca1	-1.0463556e-05
213	0x39a0887c	0.00030619267
214	0x3a919c0e	0.001110913
215	0x3b9b488e	0.004738874
216	0x3b5d6732	0.0033783433
217	0x3b9ff434	0.004881406
218	0x3b843271	0.0040343334
219	0x3b2bf983	0.002624125
220	0x3ab6796e	0.0013921687
221	0x3b3e1d62	0.0029009213
222	0x3b8d90b3	0.004320228
223	0x3b406c7a	0.0029361532
224	0x3a94ee54	0.0011362531
225	0x3c1b2510	0.009469286
226	0x3c30c59e	0.010789303
227	0x3bbeae16	0.0058190925
228	0xbb395dc7	-0.0028284655
229	0xbc149834	-0.009069491
230	0x3c03fe49	0.008056232
231	0x3be7842c	0.0070653167
232	0x3a6ef172	0.00091149576
233	0xbbb3b91c	-0.0054847132
234	0xbc0784ca	-0.0082714055
235	0x3b4f76ee	0.003165658
236	0x3a001cac	0.0004887085
237	0xbbae883e	-0.0053263
238	0xbbf1baba	-0.007376996
239	0xbb85a2b1	-0.004078232
240	0xb8158360	-3.564672e-05
241	0xbb1e48d8	-0.0024152305
242	0xbbdbd0d7	-0.0067082453
243	0xbbb96e13	-0.005658874
244	0x3a8e1e19	0.001084271
245	0xba254e27	-0.0006305896
246	0xba37d449	-0.0007012529
247	0xbb581e47	-0.003297703
248	0xbb1ba2f1	-0.0023748244
249	0x3b28dd40	0.002576664

exp_avg_sq f4 [10, 1, 5, 5]
0	0x399dd99a	0.000301075
1	0x39abe429	0.00032785654
2	0x39f66397	0.00046994977
3	0x3a169ca6	0.00057453883
4	0x3a208ae3	0.00061242114
5	0x39a51e1b	0.00031493683
6	0x39c3061b	0.00037197847
7	0x3a0905b7	0.0005226987
8	0x3a267706	0.00063501333
9	0x3a1e1784	0.0006030726
10	0x39b85f1a	0.0003516607
11	0x39fe33d0	0.0004848526
12	0x3a2176fb	0.0006159392
13	0x3a28db4c	0.0006441369
14	0x3a0b290b	0.0005308545
15	0x39e86d38	0.00044331863
16	0x3a12bb0b	0.00055973296
17	0x3a18c5be	0.0005827806
18	0x3a147e60	0.00056645833
19	0x39f10f9c	0.00045978732
20	0x39f716fa	0.0004712863
21	0x39fabfb4	0.00047826546
22	0x39f25a3b	0.00046225064
23	0x39f33544	0.00046388258
24	0x39c71592	0.0003797231
25	0x398cdaaf	0.00026865813
26	0x395c2e3c	0.00020998059
27	0x39733087	0.00023192364
28	0x39717e4c	0.000230306
29	0x3981d344	0.00024762203
30	0x399c9bed	0.00029870812
31	0x399030a8	0.00027502072
32	0x39846a41	0.00025256167
33	0x3983a7a9	0.00025111184
34	0x39756922	0.00023404186
35	0x39b69370	0.00034823595
36	0x39963f6a	0.00028657477
37	0x397a3c06	0.00023864218
38	0x3985afd8	0.0002549875
39	0x397f6e8a	0.00024359874
40	0x39dc2bbd	0.00041994257
41	0x39ed570e	0.00045269023
42	0x39b77f2b	0.00034999228
43	0x398c33b0	0.0002674139
44	0x3989ec33	0.00026306658
45	0x3a12cd9a	0.0005600095
46	0x3a15d762	0.00057159935
47	0x39ed8b51	0.0004530796
48	0x39bf06a3	0.00036435304
49	0x39aa182b	0.00032442933
50	0x3a485229	0.00076416373
51	0x3a3f9c91	0.0007309402
52	0x3a2f9d7b	0.00066991866
53	0x3a0a7932	0.0005282342
54	0x3a0412e5	0.0005038216
55	0x3a16ad29	0.0005747849
56	0x39f24c16	0.00046214525
57	0x39c49751	0.00037496773
58	0x39a1c3b9	0.00030854138
59	0x39b5f97a	0.00034708885
60	0x39c0d587	0.00036780184
61	0x399564dd	0.00028494644
62	0x39995429	0.00029245138
63	0x39a483e7	0.00031378792
64	0x39a59cc7	0.0003158806
65	0x39b1962c	0.00033871958
66	0x399fab82	0.00030454627
67	0x39a0613f	0.00030590032
68	0x398ab614	0.0002645707
69	0x39a7fcbf	0.00032041033
70	0x39b6f471	0.00034895868
71	0x399a8872	0.0002947483
72	0x39a5fa96	0.00031657954
73	0x39d68e0d	0.00040923097
74	0x39f5ed0b	0.00046906652
75	0x38bb8597	8.941738e-05
76	0x38c95da8	9.601872e-05
77	0x38d5a5ea	0.000101875354
78	0x38ac3908	8.212222e-05
79	0x38e76273	0.00011033276
80	0x38af3b48	8.355692e-05
81	0x392aca79	0.0001628789
82	0x3909b5fe	0.00013133136
83	0x38bac0a0	8.90505e-05
84	0x39003d9b	0.00012229981
85	0x38f738b1	0.000117884374
86	0x396acbed	0.00022391947
87	0x390506fd	0.00012686472
88	0x38cb0e7a	9.682491e-05
89	0x391aa4cb	0.00014747975
90	0x391f7b47	0.00015209346
91	0x3968e54a	0.00022210661
92	0x38e9b7d2	0.00011144545
93	0x38dcff1c	0.00010537935
94	0x393efbf9	0.00018213679
95	0x391a6758	0.00014725083
96	0x39200184	0.00015259354
97	0x38a748ee	7.976765e-05
98	0x38f17da2	0.000115151764
99	0x3953b110	0.00020188489
100	0x39cd7edf	0.00039195173
101	0x39da392c	0.00041622797
102	0x39d951ad	0.00041450319
103	0x39e3c7f4	0.0004344579
104	0x39d3b8c2	0.0004038271
105	0x39c6d137	0.0003792138
106	0x39cfec49	0.00039658163
107	0x39cdd15f	0.0003925664
108	0x39d32a18	0.00040276418
109	0x39bb6ec6	0.00035749952
110	0x39b05412	0.00033631973
111	0x39af941a	0.00033488945
112	0x39abccc9	0.00032768238
113	0x399b9b65	0.00029679682
114	0x3981573a	0.00024669786
115	0x39896dd5	0.00026212508
116	0x3982e5bb	0.00024966695
117	0x3972fb88	0.00023172621
118	0x39569381	0.0002046358
119	0x394a92ed	0.00019318955
120	0x39543391	0.00020237105
121	0x394d97fa	0.00019606939
122	0x3939be2b	0.00017713818
123	0x392ec75b	0.00016668199
124	0x393f936f	0.00018270103
125	0x3942cc0c	0.00018577295
126	0x3983977e	0.00025099138
127	0x3991fae5	0.00027843486
128	0x397915f6	0.00023754672
129	0x398a2da7	0.00026355425
130	0x391b211c	0.00014794286
131	0x397d3351	0.00024147077
132	0x3972e28c	0.00023163314
133	0x39653633	0.00021859333
134	0x399c2be3	0.00029787337
135	0x390c7ae2	0.00013397218
136	0x39498dcf	0.00019221682
137	0x393709cc	0.0001745589
138	0x395f4971	0.00021294296
139	0x3997b15e	0.00028933113
140	0x3939e435	0.00017727989
141	0x3940ecc2	0.00018398746
142	0x393ccfc5	0.00018006477
143	0x39661acf	0.00021944496
144	0x3996766c	0.0002869846
145	0x3961a5eb	0.00021519481
146	0x39485663	0.00019105668
147	0x39470c51	0.00018982707
148	0x395dfece	0.00021171125
149	0x398a76a8	0.00026409817
150	0x392e5998	0.0001662731
151	0x39434997	0.00018624064
152	0x395b528c	0.00020916219
153	0x3966b5c2	0.0002200222
154	0x3970aa6e	0.00022951674
155	0x39217a8a	0.00015399806
156	0x391cff85	0.00014972508
157	0x39287bf4	0.00016067905
158	0x393c762d	0.00017973101
159	0x3952f8c8	0.00020119839
160	0x39187332	0.00014538763
161	0x390ae170	0.00013244688
162	0x392ebbec	0.0001666394
163	0x39480f89	0.00019079274
164	0x39449b50	0.00018749875
165	0x391cdff6	0.00014960751
166	0x3924a0ba	0.00015700134
167	0x394afafd	0.00019357722
168	0x394e8daa	0.00019698465
169	0x392ddf04	0.00016581645
170	0x391c7f71	0.00014924795
171	0x3931db06	0.00016961628
172	0x394b3831	0.00019380522
173	0x393c1638	0.00017937354
174	0x3924cac0	0.00015715789
175	0x3a552f2d	0.0008132335
176	0x3a406241	0.000733886
177	0x3a305588	0.00067266123
178	0x3a2b4067	0.0006532729
179	0x3a284c87	0.0006420095
180	0x3a5ef840	0.000850562
181	0x3a48bbfd	0.0007657407
182	0x3a2f8441	0.00066954276
183	0x3a197936	0.00058545487
184	0x3a28f94d	0.000644584
185	0x3a691422	0.00088912447
186	0x3a6343f6	0.000866949
187	0x3a48a2eb	0.0007653671
188	0x3a342b6a	0.0006872924
189	0x3a3c2138	0.0007176581
190	0x3a50517c	0.00079467124
191	0x3a5cc9ec	0.00084224227
192	0x3a5d0fb2	0.000843282
193	0x3a4de409	0.0007854109
194	0x3a4e70ee	0.0007875104
195	0x3a3f1bc6	0.00072902103
196	0x3a3bfb18	0.00071709
197	0x3a4941cc	0.0007677346
198	0x3a4f547c	0.00079090125
199	0x3a40b3c5	0.00073510065
200	0x397963df	0.00023783695
201	0x39927552	0.000279347
202	0x398d1d20	0.00026915316
203	0x39898703	0.00026231268
204	0x398c36fa	0.00026743842
205	0x395cb56b	0.00021048418
206	0x3969181c	0.00022229593
207	0x39613a41	0.00021479373
208	0x397def65	0.00024217142
209	0x39932484	0.0002806523
210	0x393ae22b	0.00017822596
211	0x39466662	0.00018920892
212	0x393f483b	0.00018242087
213	0x398ad076	0.00026476727
214	0x39aa0193	0.000324261
215	0x3942c8bd	0.00018576063
216	0x3939165e	0.00017651307
217	0x39764e07	0.00023489456
218	0x39b211ea	0.00033964153
219	0x39bbf752	0.00035851687
220	0x39561b33	0.00020418763
221	0x39606a0c	0.0002140181
222	0x398e539a	0.0002714664
223	0x39a33527	0.00031129384
224	0x399b1404	0.00029578817
225	0x3a018064	0.0004940091
226	0x39c1c4ec	0.00036958547
227	0x3960319e	0.00021380789
228	0x39628fec	0.00021606655
229	0x39541ee5	0.00020229405
230	0x39e8f47c	0.00044432643
231	0x3984b6b9	0.0002531314
232	0x394812cf	0.00019080493
233	0x397f960a	0.00024374589
234	0x39467441	0.0001892606
235	0x39aa96b7	0.00032537218
236	0x3945f20e	0.00018877556
237	0x39871422	0.00025764207
238	0x397aeb4d	0.00023929514
239	0x394f395b	0.00019762425
240	0x39875930	0.00025815656
241	0x39678817	0.00022080574
242	0x3993b424	0.0002817224
243	0x3965cdf5	0.00021915867
244	0x396e81f5	0.00022745861
245	0x3984aa7b	0.0002530402
246	0x398b8088	0.0002660791
247	0x3998901f	0.00029099078
248	0x3959f453	0.0002078575
249	0x3989ca31	0.0002628132

exp_avg f4 [10]
0	0xbb73c65e	-0.0037197093
1	0x3c83547a	0.016031493
2	0x3c4f754e	0.012662245
3	0xbc402e90	-0.011729851
4	0x3ac927bb	0.0015346924
5	0x3ba2d471	0.0049691726
6	0x3b22ce58	0.0024842229
7	0x3c1dc973	0.009630549
8	0xb9f731e0	-0.0004714867
9	0xbc0ec2be	-0.008713422

exp_avg_sq f4 [10]
0	0x3a732567	0.0009275288
1	0x3a80be39	0.0009822316
2	0x3aa8ac77	0.0012868781
3	0x39b74918	0.0003495894
4	0x3a010de5	0.000492303
5	0x39d5bfdd	0.00040769475
6	0x3987721c	0.00025834225
7	0x3aab9481	0.0013090522
8	0x39fd0237	0.0004825757
9	0x3a2a3538	0.00064929156
